food_prediction_model.tflite (tflite, 369972 bytes, 6 tensors)

sequential/dense_1/BiasAdd/ReadVariableOp f4 [64]
0.29304868 0.2865714 0.5887666 0.7046199 0.29038775 0.24464819 0.608411 0.4775761
0.5563978 -0.9543224 0.8233265 0.6439391 0.27901137 0.33691525 0.67850435 0.5867498
0.083196804 0.5752916 0.54356587 0.59273285 0.7147749 0.96614003 -0.012241761 0.7724883
0.60196656 0.47407013 0.74395216 0.62417704 0.015765838 0.61139077 0.88350004 0.46964964
0.4612264 0.9453385 0.8396234 1.173354 -0.012688844 -0.8548762 0.5921576 0.672596
0.5791486 0.9338463 -0.06593353 0.5285463 0.3288068 0.8174808 0.39881846 -0.10687173
0.65002173 0.8283945 0.53754365 -0.050651927 0.58922553 1.0185056 0.8291904 0.29021177
0.6309899 0.8252632 -0.046442155 0.07592184 0.81686366 0.2149464 0.062258963 0.73144996
00000000: 7a0a 963e 7db9 923e 68b9 163f f861 343f
00000010: b4ad 943e 0e85 7a3e d3c0 1b3f db84 f43e
00000020: 1670 0e3f 794e 74bf 87c5 523f 31d9 243f
00000030: 94da 8e3e 2880 ac3e 76b2 2d3f 3c35 163f
00000040: 1663 aa3d 4f46 133f 2227 0b3f 57bd 173f
00000050: 7dfb 363f f454 773f ab91 48bc cbc1 453f
00000060: 7b1a 1a3f 52b9 f23e a673 3e3f 11ca 1f3f
00000070: 5c27 813c 1b84 1c3f 0f2d 623f eb75 f03e
00000080: de25 ec3e b401 723f 8ff1 563f 7730 963f
00000090: dfe4 4fbc 2bd9 5abf a497 173f 402f 2c3f
000000a0: 1543 143f 8d10 6f3f 2908 87bd cf4e 073f
000000b0: 5d59 a83e 6c46 513f ef31 cc3e 91df dabd
000000c0: d367 263f a911 543f 769c 093f 6578 4fbd
000000d0: 7cd7 163f 645e 823f d245 543f a396 943e
000000e0: 8e88 213f 7344 533f 213a 3ebd e97c 9b3d
000000f0: fa1d 513f e91a 5c3e 4103 7f3d 4e40 3b3f

sequential/dense_2/BiasAdd/ReadVariableOp f4 [1346]
-0.1338893 -0.018930197 0.1191266 -0.04921032 -0.12536937 0.0728853 0.011948597 -0.06581681
-0.29172775 -0.22712699 -0.013612075 0.0053736004 -0.007292813 -0.20357917 0.028304312 -0.011842672
-0.06684542 -0.09313 -0.066841625 -0.16722326 -0.024930302 -0.020886442 -0.13952501 -0.14344594
-0.2402745 0.06991832 0.0213374 0.068885066 -0.3759378 -0.14331472 -0.038894314 -0.14409398
-0.14170848 -0.00066242885 -0.033375543 -0.103629895 0.11891097 -0.14197956 -0.08948517 0.026323268
0.008809554 0.06416538 -0.108164184 -0.14381248 -0.14221485 0.07764102 -0.02536443 0.1695862
-0.1419954 -0.14006332 -0.12740499 -0.14352836 -0.07784455 -0.08551466 -0.14165623 0.08385325
-0.1414258 -0.17249194 -0.1407087 -0.045219522 0.031105898 -0.10697044 -0.12675963 -0.14328459
-0.07882578 -0.14336728 0.18651049 -0.057163514 -0.11056358 -0.101842165 -0.1404682 -0.27515784
-0.15320419 -0.070395015 -0.014719 -0.054257903 -0.14149395 -0.15769067 -0.14417608 -0.20506404
0.02327494 -0.14304224 0.0053840512 -0.11398035 -0.027853401 0.018214656 -0.13775714 -0.01095872
0.031609934 -0.12850246 -0.1598922 -0.16996902 -0.014280458 -0.08690853 0.012697739 -0.06914858
0.09135442 -0.071829446 -0.01495474 -0.13921845 -0.12088153 -0.14240275 -0.17734264 -0.3185293
-0.08467616 -0.050681625 -0.1432197 -0.1038529 -0.13962203 -0.17343971 -0.11848636 -0.07340608
-0.05392135 -0.10038359 -0.07070663 -0.03891548 -0.1591983 -0.14277719 0.08592339 -0.060285553
0.014957362 0.004169029 -0.09387826 -0.14314592 -0.042403005 0.020094346 0.042322505 -0.14487253
-0.09289659 -0.140865 0.061987277 -0.10974114 0.031489793 -0.051082082 -0.15565756 -0.08856599
-0.09216962 -0.002176849 0.030662093 0.064198315 -0.018749626 0.07976703 -0.17526816 0.005138346
0.010079526 0.036375336 -0.17171372 0.015236126 -0.11203919 -0.022764968 0.022641446 -0.14115585
-0.14098921 0.06919188 0.055928174 -0.13892181 -0.038765136 -0.020729655 -0.09841363 0.04458473
-0.14152554 -0.16935025 -0.12903339 -0.14265367 -0.07371827 -0.11616054 -0.069818735 -0.27650422
-0.233025 -0.15098915 -0.047234893 -0.104883544 -0.16447069 -0.20727828 -0.14246202 -0.14465444
-0.20408867 -0.04452482 -0.054561183 0.06167713 -0.066843554 -0.26081625 0.008370657 -0.1787461
-0.14154549 -0.01121569 0.08888443 0.15537985 -0.028104678 -0.08631279 -0.1614138 -0.0188045
-0.14132439 0.046338484 -0.08326336 -0.07967559 -0.14597155 0.081880905 -0.14418958 -0.05490826
-0.048195984 -0.17579763 -0.08200894 0.006704504 -0.07114792 -0.09467281 -0.059601553 -0.1293732
-0.14196096 -0.073555484 -0.13919409 -0.20506491 0.0051306216 -0.024883596 -0.020940915 -0.017754987
-0.10599312 -0.13094299 -0.14162108 -0.06393296 -0.14251448 -0.1403942 -0.026586263 -0.0046259738
-0.008139646 -0.19599138 -0.08510171 -0.040772982 -0.08670562 -0.12724438 -0.11405414 -0.14231497
-0.14224005 -0.1407252 -0.074192815 -0.14073642 -0.14120999 -0.08097732 -0.13687092 -0.22141345
-0.20608261 -0.15776496 -0.0070596975 -0.14141147 -0.13282421 -0.0317478 0.167216 -0.2416504
-0.052855596 -0.12924372 -0.04261921 -0.13909253 -0.13420577 0.027130347 -0.14234622 0.0685162
00000000: 471a 09be 8013 9bbc a6f8 f33d c390 49bd
00000010: d460 00be e344 953d 0cc4 433c f7ca 86bd
00000020: 575d 95be fa93 68be 2e05 5fbc 0715 b03b
00000030: 8df8 eebb 0f77 50be 72de e73c c407 42bc
00000040: 40e6 88bd f1ba bebd 43e4 88bd 933c 2bbe
00000050: a23a ccbc 0b1a abbc a5df 0ebe 7ee3 12be
00000060: 850a 76be 5631 8f3d c5cb ae3c 9d13 8d3d
00000070: eb7a c0be 18c1 12be a54f 1fbd 5f8d 13be
00000080: 071c 11be d9a6 2dba cbb4 08bd e93b d4bd
00000090: 9887 f33d 1763 11be 0044 b7bd e5a3 d73c
000000a0: f355 103c 2469 833d 2f85 ddbd 9443 13be
000000b0: c5a0 11be 4102 9f3d 11c9 cfbc 01a8 2d3e
000000c0: 3e67 11be c26c 0fbe 7476 02be 19f9 12be
000000d0: f76c 9fbd 4f22 afbd 550e 11be 41bb ab3d
000000e0: edd1 10be baa1 30be f115 10be 1b38 39bd
000000f0: ccd1 fe3c 5113 dbbd 47cd 01be 32b9 12be
00000100: 696f a1bd dfce 12be 9bfc 3e3e 4a24 6abd
00000110: 296f e2bd a092 d0bd e5d6 0fbe 7de1 8cbe
00000120: 8fe1 1cbe 432b 90bd f627 71bc 893d 5ebd
00000130: cae3 10be aa79 21be e5a2 13be 4ffc 51be
00000140: 16ab be3c aa79 12be b26c b03b 886e e9bd
00000150: d12c e4bc e736 953c 3510 0dbe 348c 33bc
00000160: 6b79 013d 2696 03be c8ba 23be 5c0c 2ebe
00000170: 95f8 69bc 19fd b1bd 2d0a 503c c59d 8dbd
00000180: 0718 bb3d 511b 93bd ba04 75bc 488f 0ebe
00000190: bc90 f7bd 07d2 11be 4f99 35be 4616 a3be
000001a0: b26a adbd 8997 4fbd 2fa8 12be d4b0 d4bd
000001b0: 14f9 0ebe 2e9a 31be faa8 f2bd ed55 96bd
000001c0: a2dc 5cbd e995 cdbd a3ce 90bd d765 1fbd
000001d0: e104 23be 2f34 12be 9af8 af3d fced 76bd
000001e0: b90f 753c 5a9c 883b 3f43 c0bd d894 12be
000001f0: c6ae 2dbd e69c a43c 5d5a 2d3d 7759 14be
00000200: 9140 bebd ea3e 10be 5fe6 7d3d f6bf e0bd
00000210: 71fb 003d 723b 51bd b264 1fbe 1662 b5bd
00000220: 6dc3 bcbd 77a9 0ebb 122f fb3c 687a 833d
00000230: d198 99bc e65c a33d 7f79 33be 925f a83b
00000240: 9924 253c 4efe 143d b9d5 2fbe f2a0 793c
00000250: ce74 e5bd 997d babc 8e7a b93c 298b 10be
00000260: 7a5f 10be 79b4 8d3d f114 653d 8541 0ebe
00000270: 31c8 1ebd 3dd1 a9bc 168d c9bd 7a9e 363d
00000280: 12ec 10be 276a 2dbe 5421 04be ce13 12be
00000290: 9bf9 96bd 94e5 edbd 20fd 8ebd f691 8dbe
000002a0: 1b9e 6ebe e69c 1abe 6079 41bd 2fcd d6bd
000002b0: 016b 28be c240 54be 90e1 11be 4b20 14be
000002c0: 9ffc 50be a85f 36bd 8c7b 5fbd 29a1 7c3d
000002d0: 46e5 88bd b589 85be 1525 093c 3809 37be
000002e0: 4df1 10be 03c2 37bc 0a09 b63d e51b 1f3e
000002f0: c83b e6bc c3c4 b0bd a949 25be e50b 9abc
00000300: 57b7 10be 6ccd 3d3d fb85 aabd f52c a3bd
00000310: 9179 15be 2db1 a73d 6fa6 13be 7ce7 60bd
00000320: 2769 45bd 4b04 34be 4ef4 a7bd 75b1 db3b
00000330: 00b6 91bd d1e3 c1bd c220 74bd 687a 04be
00000340: 375e 11be 42a4 96bd e588 0ebe 89fc 51be
00000350: c61e a83b afd8 cbbc 488c abbc e872 91bc
00000360: ec12 d9bd eb15 06be 1e05 11be 49ef 82bd
00000370: 51ef 11be 7fc3 0fbe 6fcb d9bc 7b95 97bb
00000380: 265c 05bc f7b1 48be ce49 aebd 9201 27bd
00000390: b792 b1bd 5a4c 02be 3895 e9bd 04bb 11be
000003a0: 60a7 11be 441a 10be 67f2 97bd 351d 10be
000003b0: 5a99 10be 70d7 a5bd e427 0cbe 35ba 62be
000003c0: 5207 53be 238d 21be 0955 e7bb 2bce 10be
000003d0: 1203 08be fb09 02bd ac3a 2b3e 3473 77be
000003e0: 1c7f 58bd 7758 04be 7b91 2ebd 466e 0ebe
000003f0: 3d6d 09be 7640 de3c 35c3 11be 3952 8c3d

sequential/dense/BiasAdd/ReadVariableOp f4 [64]
-0.3379859 1.456191 -0.49985784 1.1139741 0.5149797 0.36622894 1.630905 0.024716143
1.1990376 0.8045614 0.507752 -0.07207792 0.11145789 -0.6944348 0.06494815 0.5336585
-0.7911566 1.1799487 -0.19182637 0.26672286 0.627123 0.29149395 0.6871155 -0.07829188
1.4665203 1.5068823 1.5631634 0.6592411 0.87021047 -0.20474489 0.08704745 0.26173288
-0.53166294 1.4880979 1.032084 -0.7146467 0.62378377 0.16261427 -0.5779052 -0.29121917
0.26431885 1.5918052 0.04296186 -0.9312606 0.42841524 -0.42154798 0.1729411 1.12278
0.6637406 1.5528957 0.38465476 -0.8429784 0.83190846 -0.65352577 0.9998307 -0.22694354
0.58423 -0.6727629 1.4131582 1.6064311 1.109267 0.9083405 1.6202346 -0.37004933
00000000: 7d0c adbe 7764 ba3f 5eed ffbe b496 8e3f
00000010: b6d5 033f 5c82 bb3e 7fc1 d03f 8279 ca3c
00000020: 107a 993f bcf7 4d3f 09fc 013f 979d 93bd
00000030: 0944 e43d 7bc6 31bf 8903 853d d89d 083f
00000040: 3d89 4abf 8f08 973f 226e 44be e68f 883e
00000050: 228b 203f b23e 953e cde6 2f3f 7e57 a0bd
00000060: f0b6 bb3f 85e1 c03f bd15 c83f 06c4 283f
00000070: 1dc6 5e3f a5a8 51be ef45 b23d da01 863e
00000080: 101b 08bf fe79 be3f 541b 843f 16f3 36bf
00000090: 4bb0 1f3f 5b84 263e 98f1 13bf ae1a 95be
000000a0: cd54 873e 46c0 cb3f c6f8 2f3d 1867 6ebf
000000b0: 3e59 db3e 23d5 d7be 7917 313e 41b7 8f3f
000000c0: e7ea 293f 49c5 c63f 78f1 c43e 6fcd 57bf
000000d0: f4f7 543f 774d 27bf e8f4 7f3f e363 68be
000000e0: 1990 153f 303a 2cbf 5ee2 b43f 899f cd3f
000000f0: 76fc 8d3f 0189 683f d963 cf3f 1b77 bdbe

sequential/dense/MatMul f4 [64, 4]
-1.406396 0.88176256 -2.23327 0.89290774 -0.065373935 1.1134068 0.16472803 0.36378044
-1.4607688 0.29032946 -1.5642737 -1.1767533 -1.1409562 1.2637787 0.5150489 1.3128372
-0.08581605 0.8501452 -1.8120931 1.1754994 0.86243194 0.6051304 -2.020837 -1.8762741
-1.5220046 1.0461086 1.2821869 1.1128675 -0.2195807 -1.2133975 -1.1136335 -0.37438825
1.7956216 -0.15093389 -1.2594339 -0.41505557 1.5964134 -0.0027906618 -2.003376 -0.43335888
0.6175042 -0.84114826 0.34145105 0.23344144 -2.009005 0.8410785 1.0543373 -0.94255
1.4404745 -2.143458 -1.1049962 0.3978289 -1.4013199 0.042425733 -1.4633268 -0.9445833
-1.288194 -0.43450743 -0.9301803 0.56168187 0.5813005 -0.95976865 0.81249607 -1.2806431
-1.1746225 -0.79313517 -2.451889 0.66608906 1.1527257 0.81610495 -0.9413441 -0.59298724
-1.5997225 -0.75681555 0.030806031 -1.6918468 0.0022018985 0.6011829 -0.214923 -1.9531227
0.33680022 -1.8026541 0.07476519 -0.79802865 1.7036449 2.8284485 0.8281424 0.44696894
-0.89101803 0.91211236 -0.70601463 1.9076638 -0.46451992 -0.22606537 0.55216223 -2.1125576
0.49013156 -0.22373529 0.80370057 -0.61860025 1.2705162 -0.27044886 -0.76225626 0.13432395
1.1889974 -0.17907034 0.28411427 -1.0750923 0.89377975 -0.4760173 -0.27520722 -1.9168468
-0.20350045 -1.1820269 1.0839278 0.4070694 -0.5684154 0.066981964 0.5530647 -2.0757713
-1.7264686 1.1954739 -1.5780357 0.92471546 -0.5301312 -1.4876635 1.5776718 1.173665
-1.0089521 1.001373 -2.1459427 -0.41385797 1.6968608 0.32730463 -0.87505305 -0.9892025
1.1920693 -0.8406237 -0.65016854 -1.4343295 0.5539714 -2.6691973 0.06808225 -0.0147721665
-1.0140303 -0.9504316 1.5016321 2.018149 -0.9701693 0.08091632 0.99663883 -1.3703598
-1.347018 -0.19872828 -2.4946659 0.784117 1.1928387 -1.8576556 -1.6940318 0.43730795
-0.11737556 1.1680213 -1.5595105 0.020196965 1.9815652 -1.2753506 0.6326876 1.9236944
0.6773152 2.305407 -0.22249883 0.8718864 -1.4166522 -0.31006145 0.6608431 -2.8863955
0.55059206 0.9491883 -1.4998506 -0.47850686 -1.2675533 0.7032436 -1.6079152 -0.6940471
1.1789651 2.2664437 0.85668015 0.5937835 0.9322786 0.55125934 -0.14643589 -1.1965176
2.194724 -2.061822 0.3459646 1.4753114 -0.30851677 0.5877847 0.8009617 0.23156714
0.0047105197 -1.7923836 0.33964404 1.8097749 -0.15970156 -1.6172367 -1.8077114 1.7723097
0.5690371 0.3719651 -1.5012417 0.76234055 -1.9924916 -0.5620038 -0.53778183 -1.5703056
0.21406467 -1.3686628 -0.5508668 -0.7947122 -1.2189488 -0.6748856 -1.7393712 0.8012827
0.8454765 1.8843135 -0.46453923 0.7627866 1.547172 1.4596168 0.73720634 1.1986616
-0.65606517 0.729624 0.5501213 1.5180498 -0.65128326 1.0225589 0.73522073 0.7059669
0.24158375 -1.4497582 0.3491736 -0.82549524 1.3901284 -0.867636 -0.99942577 -0.8332538
0.49511334 -0.14297156 0.32295516 0.30222404 -1.6013266 0.3464501 -1.8807559 0.7230202
00000000: c904 b4bf 31bb 613f e5ed 0ec0 9a95 643f
00000010: c5e2 85bd 1d84 8e3f 77ae 283e 6e41 ba3e
00000020: 79fa babf 10a6 943e 1f3a c8bf da9f 96bf
00000030: da0a 92bf 80c3 a13f 3fda 033f 0d0b a83f
00000040: 53c0 afbd 1ea3 593f abf2 e7bf c476 963f
00000050: 57c8 5c3f d3e9 1a3f 6555 01c0 c029 f0bf
00000060: 0cd1 c2bf e3e6 853f b31e a43f 7172 8e3f
00000070: c3d9 60be 9c50 9bbf 8b8b 8ebf d1af bfbe
00000080: eed6 e53f 6a8e 1abe 2135 a1bf 2a82 d4be
00000090: 4657 cc3f 89e3 36bb 5037 00c0 37e1 ddbe
000000a0: c114 1e3f 7e55 57bf acd2 ae3e 460b 6f3e
000000b0: 8a93 00c0 ec50 573f 86f4 863f f54a 71bf
000000c0: 7861 b83f 6a2e 09c0 8470 8dbf 3bb0 cb3e
000000d0: 735e b3bf 9bc6 2d3d 4b4e bbbf 36d0 71bf
000000e0: 8ae3 a4bf c277 debe 4c20 6ebf 62ca 0f3f
000000f0: 1cd0 143f 66b3 75bf beff 4f3f 1dec a3bf
00000100: 085a 96bf e80a 4bbf c0eb 1cc0 d084 2a3f
00000110: 848c 933f 41ec 503f edfb 70bf 03ce 17bf
00000120: b5c3 ccbf aabe 41bf ee5c fc3c 708e d8bf
00000130: ba4d 103b 1fe7 193f c614 5cbe edff f9bf
00000140: 1471 ac3e 5fbd e6bf 7e1e 993d 9b4b 4cbf
00000150: 0911 da3f 4d05 3540 2401 543f 1dd9 e43e
00000160: c219 64bf 3280 693f 60bd 34bf 542e f43f
00000170: 8ed5 edbe ae7d 67be 815a 0d3f 2534 07c0
00000180: 86f2 fa3e dd1a 65be 52bf 4d3f 965c 1ebf
00000190: 46a0 a23f 4678 8abe 3a23 43bf 388c 093e
000001a0: 1131 983f 375e 37be 6d77 913e a09c 89bf
000001b0: c0ce 643f 8ab8 f3be f6e7 8cbe 3c5b f5bf
000001c0: 6c62 50be a84c 97bf 25be 8a3f 676b d03e
000001d0: ac83 11bf d72d 893d a695 0d3f 70d9 04c0
000001e0: ecfc dcbf 4a05 993f 13fd c9bf 27ba 6c3f
000001f0: aeb6 07bf c26b bebf 26f1 c93f a83a 963f
00000200: 5825 81bf fe2c 803f 2057 09c0 31e5 d3be
00000210: bc32 d93f 7994 a73e 7a03 60bf 603c 7dbf
00000220: ba95 983f 1d33 57bf 7271 26bf 1c98 b7bf
00000230: 12d1 0d3f 21d4 2ac0 b56e 8b3d f506 72bc
00000240: bfcb 81bf 7c4f 73bf 7b35 c03f 5a29 0140
00000250: 045d 78bf 75b7 a53d b923 7f3f f367 afbf
00000260: 166b acbf 6d7f 4bbe 9ba8 1fc0 e4bb 483f
00000270: f0ae 983f a9c7 edbf 09d6 d8bf d4e6 df3e
00000280: 9962 f0bd b981 953f 0a9e c7bf 1b74 a53c
00000290: eea3 fd3f b03e a3bf d1f7 213f 9e3b f63f
000002a0: 8764 2d3f ca8b 1340 bcd6 63be f233 5f3f
000002b0: dc54 b5bf 60c0 9ebe 032d 293f b4ba 38c0
000002c0: 9af3 0c3f 01fe 723f 1bfb bfbf dafe f4be
000002d0: 303f a2bf c607 343f 2ad0 cdbf 12ad 31bf
000002e0: 54e8 963f 6a0d 1140 644f 5b3f 3202 183f
000002f0: cfa9 6e3f 551f 0d3f 4af3 15be 7d27 99bf
00000300: 5c76 0c40 e4f4 03c0 4622 b13e 01d7 bc3f
00000310: e9f5 9dbe 0f79 163f d30b 4d3f f01f 6d3e
00000320: b45a 9a3b d36c e5bf d3e5 ad3e b4a6 e73f
00000330: ce88 23be 9d01 cfbf 1663 e7bf 0bdb e23f
00000340: 6aac 113f 3672 be3e b028 c0bf c028 433f
00000350: f709 ffbf 7bdf 0fbf 12ac 09bf c6ff c8bf
00000360: c533 5b3e 5830 afbf 9b05 0dbf 4272 4bbf
00000370: 8406 9cbf 4dc5 2cbf b7a3 debf dd20 4d3f
00000380: 2671 583f 2f31 f13f 16d8 edbe fc45 433f
00000390: bb09 c63f b9d4 ba3f 8eb9 3c3f be6d 993f
000003a0: e3f3 27bf a3c8 3a3f c0d4 0c3f 754f c23f
000003b0: 80ba 26bf 36e3 823f 6d37 3c3f 3fba 343f
000003c0: bb61 773e ad91 b9bf e2c6 b23e a853 53bf
000003d0: baef b13f 651d 5ebf 5eda 7fbf 1f50 55bf
000003e0: 7f7f fd3e 2367 12be 615a a53e 1cbd 9a3e
000003f0: 45f8 ccbf e861 b13e 9cbc f0bf da17 393f

sequential/dense_1/MatMul f4 [64, 64]
0.12857774 0.42824364 -0.28225234 0.6290927 0.06051659 0.22638553 0.9177468 -1.3762404
-0.34404024 -0.3096499 0.25770748 0.5177955 -0.12989384 -0.32760447 -0.8724955 -0.28999618
-1.5180296 -0.28119504 -0.06050024 0.5383692 -0.68836313 -0.79083484 0.39583644 0.17684695
-0.11329732 0.15256457 -0.3163183 0.3557021 0.2706529 0.5441656 -0.17517485 0.36620465
0.35247973 0.02934607 0.19443016 0.4945429 0.7032506 0.13671216 -0.53551054 0.01914876
-0.1843379 -0.051663186 -0.13870573 0.090419866 -0.14367397 0.08669834 -0.5799632 0.20292614
-0.19867541 0.46972322 0.44249088 0.14245237 0.010292959 -0.51744735 -0.60316646 -1.2482984
-0.22624777 -0.30050048 0.70188195 0.6447897 -0.46170452 -0.23878138 0.10719105 -0.24773972
0.73331124 -0.00157811 0.10850475 -0.68990904 0.1967716 0.8121462 -0.47258493 -0.22694819
1.1767738 1.0289887 0.7444277 -0.4522458 0.8152371 -0.008243198 -0.490842 -0.45090792
-0.4772027 0.04311776 -0.040237226 0.5022288 0.016346691 -0.43469715 -0.27181014 -0.033478916
-0.45585063 0.860376 0.02498859 0.3271914 -0.015020893 0.088120334 0.2939351 -0.2683788
0.36642924 0.10815076 0.5535128 0.6980656 -0.3693907 -0.1529096 -0.65364677 1.1255784
0.17983668 -0.7313773 -0.29293633 -0.32804343 0.29394656 0.45820865 -0.47824192 0.27124023
-0.39510283 -0.10280678 0.47352085 0.72647774 0.5086051 -0.41011664 0.03934391 -0.5815758
-0.3325952 -0.36350983 0.06437812 -0.25172946 -0.20120256 0.69044095 0.32584915 0.23454855
-1.1613519 0.1574978 -0.60154 -0.08247344 -0.5964049 -0.3911643 0.6327886 0.2922643
0.4087787 0.23406 -0.17972322 0.35250056 0.75600994 -0.4890629 -0.090712085 0.32406595
-0.987408 0.38818443 0.108316064 0.2911887 0.69451374 -0.7486912 -0.4220007 0.845152
0.19933698 0.6456302 0.5745447 0.35422513 -0.10387652 0.631692 -0.93448013 -0.2978038
-0.95802176 0.6546353 0.429736 0.235613 -0.11388799 0.73120373 -0.91906863 0.23703812
-0.53094184 -0.35470533 0.32333037 0.5311015 -0.4774488 -0.40681422 -0.8364439 0.471605
-0.82698995 0.44638714 0.42237854 -0.15839557 -0.10747037 -0.059093863 0.33059275 -0.3834522
0.390972 -0.64248 -0.13629192 0.5456878 0.64022183 0.78885156 0.31868804 -1.0969102
1.6543438 0.22525246 0.20976539 0.33259112 0.90984535 -0.16898885 0.042576615 -0.055993266
0.88557124 0.7456035 0.7223924 -0.86106503 -1.4530983 -0.11925943 0.5048407 0.14542027
0.010220783 0.24327593 -0.89583725 -0.62435347 0.67011636 -0.2451853 0.6132685 -0.89556235
0.27043563 0.95901954 0.22813603 -0.039958384 0.52539295 -0.80165064 0.91555566 0.96946704
0.11791385 0.61417204 0.31926307 -0.1877992 0.425505 -0.5718587 1.0396597 -1.0608987
0.406665 -0.627913 -0.80698276 -1.9246335 0.24293339 0.016091071 -0.2241411 0.13655305
-1.3379121 -0.12027319 -1.1793175 -0.122501045 0.28504637 -0.6830123 0.3589699 0.407717
-0.24396722 -0.4663334 0.8147267 0.3512172 0.1962675 0.8027311 0.9743213 1.022249
00000000: e2a9 033e c042 db3e 6183 90be 380c 213f
00000010: 3ee0 773d 9cd1 673e 74f1 6a3f a528 b0bf
00000020: 0b26 b0be 6f8a 9ebe 3cf2 833e 3f8e 043f
00000030: e402 05be c6bb a7be dd5b 5fbf 617a 94be
00000040: cb4e c2bf ccf8 8fbe 1acf 77bd 90d2 093f
00000050: 9138 30bf 2774 4abf 13ab ca3e 5e17 353e
00000060: 6d08 e8bd e339 1c3e 79f4 a1be 961e b63e
00000070: 0493 8a3e 704e 0b3f 0961 33be 2d7f bb3e
00000080: 3978 b43e 2b67 f03c b318 473e ba34 fd3e
00000090: 3b08 343f 46fe 0b3e 3817 09bf dcdd 9c3c
000000a0: 13c3 3cbe c79c 53bd e008 0ebe 0d2e b93d
000000b0: 451f 13be e68e b13d 7878 14bf dfcb 4f3e
000000c0: 9171 4bbe 907f f03e 2a8e e23e 09df 113e
000000d0: cda3 283c 6e77 04bf 1e69 1abf 3ec8 9fbf
000000e0: 7fad 67be 33db 99be 89ae 333f f010 253f
000000f0: 8964 ecbe 1b83 74be fb86 db3d 7baf 7dbe
00000100: 49ba 3b3f 96d8 ceba bd37 de3d e19d 30bf
00000110: 7f7e 493e d0e8 4f3f a7f6 f1be 1b65 68be
00000120: 86a0 963f e7b5 833f d092 3e3f c38c e7be
00000130: 61b3 503f 7a0e 07bc a54f fbbe 67dd e6be
00000140: ea53 f4be 409c 303d cacf 24bd 1192 003f
00000150: 7fe9 853c a090 debe b32a 8bbe 3021 09bd
00000160: 4165 e9be 9a41 5c3f dfb4 cc3c a285 a73e
00000170: 311a 76bc 6f78 b43d a97e 963e f268 89be
00000180: 9d9c bb3e 257e dd3d 04b3 0d3f 6db4 323f
00000190: c720 bdbe 5694 1cbe 6555 27bf f412 903f
000001a0: 1b27 383e 8b3b 3bbf c0fb 95be 4ff5 a7be
000001b0: 2a80 963e 539a ea3e 20dc f4be 00e0 8a3e
000001c0: eb4a cabe 5c8c d2bd 5371 f23e 72fa 393f
000001d0: f233 023f cffa d1be 1427 213d 27e2 14bf
000001e0: eb49 aabe f61d babe add8 833d afe2 80be
000001f0: 0b08 4ebe bdc0 303f b3d5 a63e 7f2d 703e
00000200: 2ea7 94bf 1a47 213e 87fe 19bf d6e7 a8bd
00000210: fead 18bf b046 c8be 6ffe 213f aba3 953e
00000220: 714b d13e 6dad 6f3e 5d09 38be f47a b43e
00000230: de89 413f 7466 fabe 42c7 b9bd f9eb a53e
00000240: c5c6 7cbf 1cc0 c63e d0d4 dd3d af16 953e
00000250: a7cb 313f 3aaa 3fbf 7a10 d8be e25b 583f
00000260: fe1e 4c3e 0548 253f 5d15 133f ff5c b53e
00000270: 37bd d4bd 91b6 213f 173a 6fbf bd79 98be
00000280: ea40 75bf 2e96 273f 5b06 dc3e 8944 713e
00000290: 1b3e e9bd 2b30 3b3f 1548 6bbf 1fba 723e
000002a0: ceeb 07bf f09b b5be 8f8b a53e 45f6 073f
000002b0: 2b74 f4be f449 d0be 3021 56bf 3676 f13e
000002c0: 9db5 53bf db8c e43e 0042 d83e 7332 22be
000002d0: 6d19 dcbd 680c 72bd 7443 a93e d953 c4be
000002e0: 7b2d c83e 9279 24bf 1c90 0bbe 32b2 0b3f
000002f0: 94e5 233f 2df2 493f 142b a33e 8e67 8cbf
00000300: 8ac1 d33f 95a8 663e bdcc 563e 6249 aa3e
00000310: a0eb 683f 6a0b 2dbe d164 2e3d 3259 65bd
00000320: ccb4 623f dfdf 3e3f b5ee 383f c26e 5cbf
00000330: 20ff b9bf 4a3e f4bd 3d3d 013f 0de9 143e
00000340: 1275 273c 531d 793e 9755 65bf a1d5 1fbf
00000350: bf8c 2b3f db11 7bbe 2aff 1c3f 9343 65bf
00000360: 8a76 8a3e 4e82 753f 7e9c 693e 67ab 23bd
00000370: 2780 063f fa38 4dbf db61 6a3f fe2e 783f
00000380: d17c f13d 613a 1d3f 7376 a33e 6f4e 40be
00000390: cbdb d93e 5565 12bf 9213 853f 87cb 87bf
000003a0: 6536 d03e e8be 20bf 6c96 4ebf 645a f6bf
000003b0: 88c3 783e 6cd1 833c 3f85 65be 90d4 0b3e
000003c0: b440 abbf ca51 f6bd e0f3 96bf d4e1 fabd
000003d0: 99f1 913e e5d9 2ebf e7ca b73e 48c0 d03e
000003e0: 8bd2 79be 40c3 eebe ee91 503f bed2 b33e
000003f0: 59fa 483e c97f 4d3f 1f6d 793f 0ed9 823f

sequential/dense_2/MatMul f4 [1346, 64]
0.21733922 -3.3595383 -0.09782604 -4.2637186 -2.2889748 -1.8556238 0.14024217 0.31242287
-1.0523518 -3.5424411 -0.15808469 -0.25509796 -0.5935711 -0.38077244 0.0005615938 -2.7712436
-0.46290874 -0.06739175 -0.16183372 -0.3623314 -0.013864184 -0.19114082 0.020817846 -1.1349384
-0.014688135 -0.032240238 0.006346105 0.6366446 -5.6905723 0.018860687 0.032738924 -1.2008243
-4.1007442 -0.12736708 -0.7400281 0.019703254 0.029966014 -2.7769806 -0.18837823 0.5175275
0.092152596 -0.011555542 -0.07884538 -0.64643687 -0.356834 -0.16407575 -0.20725302 -0.09161175
-0.4104926 -0.1727679 -3.5951824 0.00035334533 -3.3542562 -0.052757725 0.09930871 -2.082382
-0.012789574 0.019430317 -3.058505 -0.13320239 -0.62137896 -2.380803 -0.027894724 -0.1353271
-0.31124225 -1.7417481 0.07016919 -0.55040646 -0.30955422 -5.5723386 0.16115357 0.26430562
-0.4301779 -0.6244223 0.03845735 -2.4125628 -0.67393076 -6.1344404 -0.50923866 -1.2181636
0.40229186 -0.27421618 0.26205608 -0.062554605 -2.0807354 0.07969331 -0.033513803 -0.42576268
-5.1638193 -4.1947193 -0.8246691 -2.0596485 -0.2535006 -1.3263971 0.44832012 -0.6790688
-1.4762062 0.07193581 -1.7749288 0.8904314 0.0030277658 -0.25151524 -0.2958083 -0.5689175
-3.0647123 0.12470464 0.023592528 0.17488505 -2.9683626 0.15012854 -1.165243 -0.13681228
-1.967186 -2.5217443 -2.3463736 0.049190518 -0.51713073 0.39874467 -2.4695208 -0.94864285
-0.2954491 -0.069306985 0.07370937 0.0828879 -1.6989648 -0.141501 -0.592604 0.18793587
-0.4661982 -2.5611598 0.5316796 -2.6732225 -7.80032 -3.5580342 -2.4227068 -0.67033994
0.06489826 0.35991552 0.6338531 0.26233315 0.4732287 -1.2215718 -9.609255 -3.158168
-0.93130434 0.10413187 0.37920356 -7.504402 -0.3694034 -1.570061 -0.04629179 -0.05887101
-1.5396492 0.42029515 0.7230425 0.49024558 -0.6639599 -1.1151458 -4.556428 -0.3207575
-0.081808925 -0.764286 -6.9259024 -2.6460154 -0.06655461 0.3979049 -4.3001647 -1.0862522
0.36955777 0.18341754 0.2560748 -2.2360866 -0.9470537 -1.1515315 -0.4088762 0.47812006
-10.232443 -2.5084362 0.3011856 -0.050093237 -3.5930927 -0.40932542 -2.000355 -3.3248487
-0.44638762 0.31337133 -1.8875315 0.067076564 -0.051806867 -0.13016261 0.27689138 0.21329637
-0.44910973 -0.2620925 0.038408242 -0.3125593 -0.3212492 -1.2962216 0.2952589 0.5265624
0.0042341305 -0.2547499 0.28021672 -0.021442397 0.08738288 -0.049690183 -0.8146463 0.27503517
-2.4434903 -0.4597393 -0.108970776 -0.54315203 -1.3247094 0.13664478 -0.029576037 -0.2121403
-2.1013517 -0.082723856 -1.4554069 0.5594297 -0.9069395 -0.9642979 -1.1759294 -0.3489689
-0.3804321 -0.38070706 -0.34271953 -12.283518 -0.049057696 -0.18559437 -0.6485126 0.882248
0.93281996 -0.5720665 -0.03041091 -1.1717657 -0.3185559 -0.379426 -0.24949911 -0.39737928
-0.43822008 -0.21757877 0.06027483 -0.012897592 -0.6844203 0.11793916 0.39629886 -0.16531363
-0.350481 -0.28581673 -2.757768 -0.121704504 -0.28765172 -0.22389512 -0.20009293 -0.08245196
00000000: 2c8e 5e3e ad02 57c0 0559 c8bd 6270 88c0
00000010: 907e 12c0 1585 edbf a59b 0f3e e4f5 9f3e
00000020: 77b3 86bf 5bb7 62c0 f4e0 21be 339c 82be
00000030: 47f4 17bf 9bf4 c2be ec37 133a 0e5c 31c0
00000040: 6002 edbe b004 8abd bdb7 25be 8083 b9be
00000050: 9a26 63bc 6bba 43be 308a aa3c a945 91bf
00000060: 81a6 70bc 570e 04bd fdf2 cf3b 24fb 223f
00000070: 2b19 b6c0 ba81 9a3c 4019 063d 9cb4 99bf
00000080: 4c39 83c0 846c 02be 7b72 3dbf b868 a13c
00000090: 497b f53c 0dba 31c0 39e6 40be af7c 043f
000000a0: 80ba bc3d 7553 3dbc b079 a1bd e37c 25bf
000000b0: f2b2 b6be 7903 28be 233a 54be f19e bbbd
000000c0: 162c d2be 12ea 30be 7817 66c0 3541 b939
000000d0: 22ac 56c0 7c18 58bd 5d62 cb3d bf45 05c0
000000e0: 5d8b 51bc 542c 9f3c 8cbe 43c0 3566 08be
000000f0: b112 1fbf 145f 18c0 7a83 e4bc 3093 0abe
00000100: 255b 9fbe 9af1 debf ddb4 8f3d 70e7 0cbf
00000110: e47d 9ebe 9950 b2c0 7105 253e 1153 873e
00000120: 4740 dcbe 24da 1fbf 7485 1d3d 6e67 1ac0
00000130: ba86 2cbf 564d c4c0 775d 02bf c9ec 9bbf
00000140: 33f9 cd3e 1066 8cbe 372c 863e a11c 80bd
00000150: c52a 05c0 3f36 a33d c545 09bd 91fd d9be
00000160: 023e a5c0 243b 86c0 841d 53bf 48d1 03c0
00000170: d5ca 81be 61c7 a9bf 378a e53e 74d7 2dbf
00000180: 53f4 bcbf 1553 933d de30 e3bf 50f3 633f
00000190: 7b6d 463b 9bc6 80be 2f74 97be 94a4 11bf
000001a0: 3f24 44c0 2565 ff3d 1e45 c13c 1115 333e
000001b0: a7f9 3dc0 4cbb 193e af26 95bf 8518 0cbe
000001c0: c0cc fbbf 4264 21c0 fc2a 16c0 ff7b 493d
000001d0: ae62 04bf 4328 cc3e a10c 1ec0 42da 72bf
000001e0: 1b45 97be d2f0 8dbd f0f4 963d 22c1 a93d
000001f0: ae77 d9bf a3e5 10be e5b4 17bf 4372 403e
00000200: 88b1 eebe 0bea 23c0 271c 083f 1416 2bc0
00000210: 399c f9c0 d5b6 63c0 a10d 1bc0 669b 2bbf
00000220: 61e9 843d d946 b83e 3244 223f 8850 863e
00000230: 084b f23e 775c 9cbf 82bf 19c1 6d1f 4ac0
00000240: f669 6ebf 1743 d53d f826 c23e 1024 f0c0
00000250: 7122 bdbe c2f7 c8bf 769c 3dbd ba22 71bd
00000260: 3a13 c5bf ed30 d73e 5019 393f 7801 fb3e
00000270: 47f9 29bf 19bd 8ebf 42ce 91c0 543a a4be
00000280: 708b a7bd 3fa8 43bf fea0 ddc0 5158 29c0
00000290: c94d 88bd 31ba cb3e f39a 89c0 500a 8bbf
000002a0: ad36 bd3e cfd1 3b3e 3c1c 833e 0b1c 0fc0
000002b0: 1c72 72bf 6265 93bf 3958 d1be 27cc f43e
000002c0: 16b8 23c1 388a 20c0 0035 9a3e 912e 4dbd
000002d0: 3bf5 65c0 1a93 d1be d105 00c0 52ca 54c0
000002e0: eb8c e4be 3572 a03e a29a f1bf 705f 893d
000002f0: 7033 54bd 5949 05be b5c4 8d3e 5d6a 5a3e
00000300: b6f1 e5be fd30 86be f651 1d3d c607 a0be
00000310: c67a a4be 97ea a5bf 2d2c 973e cbcc 063f
00000320: 76be 8a3b 946e 82be 9178 8f3e f7a7 afbc
00000330: ccf5 b23d ef87 4bbd a98c 50bf 69d1 8c3e
00000340: 2562 1cc0 f362 ebbe 122c dfbd 030c 0bbf
00000350: 1490 a9bf 9cec 0b3e 7249 f2bc 4f3b 59be
00000360: 8c7c 06c0 206b a9bd c64a babf c936 0f3f
00000370: 302d 68bf 3adc 76bf db84 96bf 0dac b2be
00000380: ffc7 c2be 09ec c2be ef78 afbe 4a89 44c1
00000390: b9f0 48bd 730c 3ebe ec04 26bf 01db 613f
000003a0: 4acd 6e3f f372 12bf 4d20 f9bc 6bfc 95bf
000003b0: c219 a3be 2044 c2be b27c 7fbe 4c75 cbbe
000003c0: 625e e0be f8cc 5ebe bde2 763d 6c50 53bc
000003d0: 2b36 2fbf 168a f13d afe7 ca3e fa47 29be
000003e0: 3f72 b3be 9256 92be 457f 30c0 3640 f9bd
000003f0: 1647 93be c344 65be 29e5 4cbe 93dc a8bd
